…
Thu 05 Oct 2023 10:36:25 INFO 
====Testing====
baby
The number of users: 19445
Average actions of users: 1.1150424273592183
The number of items: 5549
Average actions of items: 3.907370697422959
The number of inters: 21682
The sparsity of the dataset: 99.97990552482683%
Thu 05 Oct 2023 10:36:40 INFO 

=================================


Thu 05 Oct 2023 10:36:40 INFO =========1/4: Parameters:['knn_k', 'n_ui_layers', 'neighbor_weight', 'kl_weight', 'n_mm_layers', 'alpha', 'beta', 'gama', 'seed']=(5, 2, 0.001, 1, 1, 1.5, 1.5, 1, 999)=======
Thu 05 Oct 2023 10:36:45 INFO LightGCN(
  (user_embedding): Embedding(19445, 64)
  (item_id_embedding): Embedding(7050, 64)
  (image_embedding): Embedding(7050, 4096)
  (image_trs): Linear(in_features=4096, out_features=64, bias=True)
  (text_embedding): Embedding(7050, 384)
  (text_trs): Linear(in_features=384, out_features=64, bias=True)
  (query_common): Sequential(
    (0): Linear(in_features=64, out_features=64, bias=True)
    (1): ReLU()
    (2): Linear(in_features=64, out_features=1, bias=False)
  )
  (key_common): Sequential(
    (0): Linear(in_features=64, out_features=64, bias=True)
    (1): ReLU()
    (2): Linear(in_features=64, out_features=1, bias=False)
  )
)
Trainable parameters: 33574976
Thu 05 Oct 2023 10:36:48 INFO epoch 0 training [time: 2.18s, train loss: 7.3307]
Thu 05 Oct 2023 10:37:02 INFO epoch 0 evaluating [time: 7.51s, valid_score: 0.037400]
Thu 05 Oct 2023 10:37:02 INFO valid result: 
recall@5: 0.0164    recall@10: 0.0251    recall@20: 0.0374    recall@50: 0.0590    ndcg@5: 0.0108    ndcg@10: 0.0136    ndcg@20: 0.0168    ndcg@50: 0.0212    precision@5: 0.0034    precision@10: 0.0026    precision@20: 0.0020    precision@50: 0.0013    map@5: 0.0089    map@10: 0.0100    map@20: 0.0109    map@50: 0.0116    
…
