…
The number of inters: 37899
The sparsity of the dataset: 99.99202039826986%
Thu 20 Jul 2023 04:31:11 INFO 
====Testing====
sports
The number of users: 35598
Average actions of users: 1.1244732850160122
The number of items: 13738
Average actions of items: 2.9137429028970736
The number of inters: 40029
The sparsity of the dataset: 99.99181486908563%
Thu 20 Jul 2023 04:31:20 INFO 

=================================


Thu 20 Jul 2023 04:31:20 INFO =========1/4: Parameters:['reg_weight', 'learning_rate', 'seed']=(0.001, 0.0001, 999)=======
Thu 20 Jul 2023 04:31:21 INFO MMGCN(
  (v_gcn): GCN(
    (MLP): Linear(in_features=4096, out_features=256, bias=True)
    (conv_embed_1): BaseModel(256, 256)
    (linear_layer1): Linear(in_features=256, out_features=64, bias=True)
    (g_layer1): Linear(in_features=320, out_features=64, bias=True)
    (conv_embed_2): BaseModel(64, 64)
    (linear_layer2): Linear(in_features=64, out_features=64, bias=True)
    (g_layer2): Linear(in_features=128, out_features=64, bias=True)
    (conv_embed_3): BaseModel(64, 64)
    (linear_layer3): Linear(in_features=64, out_features=64, bias=True)
    (g_layer3): Linear(in_features=128, out_features=64, bias=True)
  )
  (t_gcn): GCN(
    (conv_embed_1): BaseModel(384, 384)
    (linear_layer1): Linear(in_features=384, out_features=64, bias=True)
    (g_layer1): Linear(in_features=448, out_features=64, bias=True)
    (conv_embed_2): BaseModel(64, 64)
    (linear_layer2): Linear(in_features=64, out_features=64, bias=True)
    (g_layer2): Linear(in_features=128, out_features=64, bias=True)
    (conv_embed_3): BaseModel(64, 64)
    (linear_layer3): Linear(in_features=64, out_features=64, bias=True)
    (g_layer3): Linear(in_features=128, out_features=64, bias=True)
  )
)
Trainable parameters: 1418240
Thu 20 Jul 2023 04:31:32 INFO epoch 0 training [time: 10.34s, train loss: 37.3685]
Thu 20 Jul 2023 04:31:45 INFO epoch 0 evaluating [time: 6.13s, valid_score: 0.006900]
Thu 20 Jul 2023 04:31:45 INFO valid result: 
recall@5: 0.0006    recall@10: 0.0013    recall@20: 0.0069    recall@50: 0.0150    ndcg@5: 0.0003    ndcg@10: 0.0005    ndcg@20: 0.0019    ndcg@50: 0.0035    precision@5: 0.0001    precision@10: 0.0001    precision@20: 0.0004    precision@50: 0.0003    map@5: 0.0002    map@10: 0.0003    map@20: 0.0006    map@50: 0.0009    
…
