…
Average actions of items: 3.3072354211663066
The number of inters: 6125
The sparsity of the dataset: 99.94600431965442%
Wed 06 Dec 2023 09:03:33 INFO 
====Testing====
tiktok
The number of users: 3046
Average actions of users: 1.0
The number of items: 1270
Average actions of items: 2.398425196850394
The number of inters: 3046
The sparsity of the dataset: 99.92125984251969%
Wed 06 Dec 2023 09:03:36 INFO 

=================================


Wed 06 Dec 2023 09:03:36 INFO =========1/4: Parameters:['reg_weight', 'learning_rate', 'seed']=(0.001, 0.0001, 999)=======
Wed 06 Dec 2023 09:03:37 INFO MMGCN(
  (v_gcn): GCN(
    (MLP): Linear(in_features=128, out_features=256, bias=True)
    (conv_embed_1): BaseModel(256, 256)
    (linear_layer1): Linear(in_features=256, out_features=64, bias=True)
    (g_layer1): Linear(in_features=320, out_features=64, bias=True)
    (conv_embed_2): BaseModel(64, 64)
    (linear_layer2): Linear(in_features=64, out_features=64, bias=True)
    (g_layer2): Linear(in_features=128, out_features=64, bias=True)
    (conv_embed_3): BaseModel(64, 64)
    (linear_layer3): Linear(in_features=64, out_features=64, bias=True)
    (g_layer3): Linear(in_features=128, out_features=64, bias=True)
  )
  (t_gcn): GCN(
    (conv_embed_1): BaseModel(768, 768)
    (linear_layer1): Linear(in_features=768, out_features=64, bias=True)
    (g_layer1): Linear(in_features=832, out_features=64, bias=True)
    (conv_embed_2): BaseModel(64, 64)
    (linear_layer2): Linear(in_features=64, out_features=64, bias=True)
    (g_layer2): Linear(in_features=128, out_features=64, bias=True)
    (conv_embed_3): BaseModel(64, 64)
    (linear_layer3): Linear(in_features=64, out_features=64, bias=True)
    (g_layer3): Linear(in_features=128, out_features=64, bias=True)
  )
  (a_gcn): GCN(
    (conv_embed_1): BaseModel(128, 128)
    (linear_layer1): Linear(in_features=128, out_features=64, bias=True)
    (g_layer1): Linear(in_features=192, out_features=64, bias=True)
    (conv_embed_2): BaseModel(64, 64)
    (linear_layer2): Linear(in_features=64, out_features=64, bias=True)
    (g_layer2): Linear(in_features=128, out_features=64, bias=True)
    (conv_embed_3): BaseModel(64, 64)
    (linear_layer3): Linear(in_features=64, out_features=64, bias=True)
    (g_layer3): Linear(in_features=128, out_features=64, bias=True)
  )
)
Trainable parameters: 963968
Wed 06 Dec 2023 09:03:41 INFO epoch 0 training [time: 3.66s, train loss: 10.3953]
Wed 06 Dec 2023 09:03:43 INFO epoch 0 evaluating [time: 1.20s, valid_score: 0.008500]
Wed 06 Dec 2023 09:03:43 INFO valid result: 
recall@5: 0.0020    recall@10: 0.0056    recall@20: 0.0085    recall@50: 0.0165    ndcg@5: 0.0009    ndcg@10: 0.0021    ndcg@20: 0.0029    ndcg@50: 0.0044    precision@5: 0.0004    precision@10: 0.0006    precision@20: 0.0004    precision@50: 0.0003    map@5: 0.0006    map@10: 0.0011    map@20: 0.0013    map@50: 0.0016    
…
