…
The sparsity of the dataset: 99.94600431965442%
Wed 06 Dec 2023 09:09:04 INFO 
====Testing====
tiktok
The number of users: 3046
Average actions of users: 1.0
The number of items: 1270
Average actions of items: 2.398425196850394
The number of inters: 3046
The sparsity of the dataset: 99.92125984251969%
Wed 06 Dec 2023 09:09:08 INFO 

=================================


Wed 06 Dec 2023 09:09:08 INFO =========1/40: Parameters:['learning_rate', 'ssl_temp', 'ssl_alpha', 'reg', 'seed']=(0.001, 0.1, 0.01, 0.0001, 999)=======
Wed 06 Dec 2023 09:09:09 INFO SLMRec(
  (infonce_criterion): CrossEntropyLoss()
  (embedding_user): Embedding(9308, 64)
  (embedding_item): Embedding(6710, 64)
  (v_dense): Linear(in_features=128, out_features=64, bias=True)
  (t_dense): Linear(in_features=768, out_features=64, bias=True)
  (embedding_item_after_GCN): Linear(in_features=192, out_features=64, bias=True)
  (embedding_user_after_GCN): Linear(in_features=192, out_features=64, bias=True)
  (f): Sigmoid()
  (g_i_iv): Linear(in_features=64, out_features=64, bias=True)
  (g_v_iv): Linear(in_features=64, out_features=64, bias=True)
  (g_iv_iva): Linear(in_features=64, out_features=64, bias=True)
  (g_a_iva): Linear(in_features=64, out_features=64, bias=True)
  (g_iva_ivat): Linear(in_features=64, out_features=32, bias=True)
  (g_t_ivat): Linear(in_features=64, out_features=32, bias=True)
)
Trainable parameters: 1128128
Wed 06 Dec 2023 09:09:12 INFO epoch 0 training [time: 2.44s, train loss: 124.1617]
Wed 06 Dec 2023 09:09:14 INFO epoch 0 evaluating [time: 1.40s, valid_score: 0.068600]
Wed 06 Dec 2023 09:09:14 INFO valid result: 
recall@5: 0.0393    recall@10: 0.0472    recall@20: 0.0686    recall@50: 0.1334    ndcg@5: 0.0295    ndcg@10: 0.0320    ndcg@20: 0.0372    ndcg@50: 0.0503    precision@5: 0.0079    precision@10: 0.0047    precision@20: 0.0034    precision@50: 0.0027    map@5: 0.0263    map@10: 0.0274    map@20: 0.0286    map@50: 0.0308    
…
