…
Average actions of items: 3.3072354211663066
The number of inters: 6125
The sparsity of the dataset: 99.94600431965442%
Wed 06 Dec 2023 11:48:50 INFO 
====Testing====
tiktok
The number of users: 3046
Average actions of users: 1.0
The number of items: 1270
Average actions of items: 2.398425196850394
The number of inters: 3046
The sparsity of the dataset: 99.92125984251969%
Wed 06 Dec 2023 11:48:53 INFO 

=================================


Wed 06 Dec 2023 11:48:53 INFO =========1/3: Parameters:['layer', 'seed']=(2, 999)=======
Wed 06 Dec 2023 11:48:55 INFO MMSSL(
  (model_G): Generator(
    (image_decoder): Linear(in_features=64, out_features=128, bias=True)
    (text_decoder): Linear(in_features=64, out_features=768, bias=True)
    (decoder): ModuleDict(
      (image_decoder): Linear(in_features=64, out_features=128, bias=True)
      (text_decoder): Linear(in_features=64, out_features=768, bias=True)
    )
    (image_trans): Linear(in_features=128, out_features=64, bias=True)
    (text_trans): Linear(in_features=768, out_features=64, bias=True)
    (encoder): ModuleDict(
      (image_encoder): Linear(in_features=128, out_features=64, bias=True)
      (text_encoder): Linear(in_features=768, out_features=64, bias=True)
    )
    (common_trans): Linear(in_features=64, out_features=64, bias=True)
    (align): ModuleDict(
      (common_trans): Linear(in_features=64, out_features=64, bias=True)
    )
    (user_id_embedding): Embedding(9308, 64)
    (item_id_embedding): Embedding(6710, 64)
    (image_embedding): Embedding(6710, 128)
    (text_embedding): Embedding(6710, 768)
    (image_gnn_trans): Linear(in_features=64, out_features=64, bias=True)
    (text_gnn_trans): Linear(in_features=64, out_features=64, bias=True)
    (gnn): ModuleDict(
      (user_id_embedding): Embedding(9308, 64)
      (item_id_embedding): Embedding(6710, 64)
      (image_embedding): Embedding(6710, 128)
      (text_embedding): Embedding(6710, 768)
      (image_trans): Linear(in_features=128, out_features=64, bias=True)
      (text_trans): Linear(in_features=768, out_features=64, bias=True)
      (image_gnn_trans): Linear(in_features=64, out_features=64, bias=True)
      (text_gnn_trans): Linear(in_features=64, out_features=64, bias=True)
    )
    (softmax): Softmax(dim=-1)
    (act): Sigmoid()
    (sigmoid): Sigmoid()
    (dropout): Dropout(p=0.2, inplace=False)
    (batch_norm): BatchNorm1d(64, eps=1e-05, momentum=0.1, affine=True, track_running_stats=True)
    (other): ModuleDict(
      (softmax): Softmax(dim=-1)
      (act): Sigmoid()
      (sigmoid): Sigmoid()
      (dropout): Dropout(p=0.2, inplace=False)
      (batch_norm): BatchNorm1d(64, eps=1e-05, momentum=0.1, affine=True, track_running_stats=True)
    )
    (weight_dict): ParameterDict(
        (w_k): Parameter containing: [torch.cuda.FloatTensor of size 64x64 (GPU 0)]
        (w_q): Parameter containing: [torch.cuda.FloatTensor of size 64x64 (GPU 0)]
        (w_self_attention_cat): Parameter containing: [torch.cuda.FloatTensor of size 256x64 (GPU 0)]
        (w_self_attention_item): Parameter containing: [torch.cuda.FloatTensor of size 64x64 (GPU 0)]
        (w_self_attention_user): Parameter containing: [torch.cuda.FloatTensor of size 64x64 (GPU 0)]
        (w_v): Parameter containing: [torch.cuda.FloatTensor of size 64x64 (GPU 0)]
    )
  )
  (model_D): Discriminator(
    (net): Sequential(
      (0): Linear(in_features=6710, out_features=1677, bias=True)
      (1): LeakyReLU(negative_slope=True)
      (2): BatchNorm1d(1677, eps=1e-05, momentum=0.1, affine=True, track_running_stats=True)
      (3): Dropout(p=0.31, inplace=False)
      (4): Linear(in_features=1677, out_features=838, bias=True)
      (5): LeakyReLU(negative_slope=True)
      (6): BatchNorm1d(838, eps=1e-05, momentum=0.1, affine=True, track_running_stats=True)
      (7): Dropout(p=0.5, inplace=False)
      (8): Linear(in_features=838, out_features=1, bias=True)
      (9): Sigmoid()
    )
  )
  (bce): BCEWithLogitsLoss()
  (bce_loss): BCELoss()
)
Trainable parameters: 19868876
Wed 06 Dec 2023 11:49:29 INFO epoch 0 training [time: 33.77s, train loss: 68.1641]
Wed 06 Dec 2023 11:49:32 INFO epoch 0 evaluating [time: 1.68s, valid_score: 0.055200]
Wed 06 Dec 2023 11:49:32 INFO valid result: 
recall@5: 0.0251    recall@10: 0.0372    recall@20: 0.0552    recall@50: 0.0880    ndcg@5: 0.0153    ndcg@10: 0.0192    ndcg@20: 0.0237    ndcg@50: 0.0302    precision@5: 0.0050    precision@10: 0.0037    precision@20: 0.0028    precision@50: 0.0018    map@5: 0.0121    map@10: 0.0137    map@20: 0.0150    map@50: 0.0160    
…
