…
Average actions of items: 2.840578623894469
The number of inters: 37899
The sparsity of the dataset: 99.99202039826986%
Thu 20 Jul 2023 06:30:56 INFO 
====Testing====
sports
The number of users: 35598
Average actions of users: 1.1244732850160122
The number of items: 13738
Average actions of items: 2.9137429028970736
The number of inters: 40029
The sparsity of the dataset: 99.99181486908563%
Thu 20 Jul 2023 06:31:11 INFO 

=================================


Thu 20 Jul 2023 06:31:11 INFO =========1/4: Parameters:['layer', 'seed']=(1, 999)=======
Thu 20 Jul 2023 06:31:21 INFO MMSSL(
  (model_G): Generator(
    (image_decoder): Linear(in_features=64, out_features=4096, bias=True)
    (text_decoder): Linear(in_features=64, out_features=384, bias=True)
    (decoder): ModuleDict(
      (image_decoder): Linear(in_features=64, out_features=4096, bias=True)
      (text_decoder): Linear(in_features=64, out_features=384, bias=True)
    )
    (image_trans): Linear(in_features=4096, out_features=64, bias=True)
    (text_trans): Linear(in_features=384, out_features=64, bias=True)
    (encoder): ModuleDict(
      (image_encoder): Linear(in_features=4096, out_features=64, bias=True)
      (text_encoder): Linear(in_features=384, out_features=64, bias=True)
    )
    (common_trans): Linear(in_features=64, out_features=64, bias=True)
    (align): ModuleDict(
      (common_trans): Linear(in_features=64, out_features=64, bias=True)
    )
    (user_id_embedding): Embedding(35598, 64)
    (item_id_embedding): Embedding(18357, 64)
    (image_embedding): Embedding(18357, 4096)
    (text_embedding): Embedding(18357, 384)
    (image_gnn_trans): Linear(in_features=64, out_features=64, bias=True)
    (text_gnn_trans): Linear(in_features=64, out_features=64, bias=True)
    (gnn): ModuleDict(
      (user_id_embedding): Embedding(35598, 64)
      (item_id_embedding): Embedding(18357, 64)
      (image_embedding): Embedding(18357, 4096)
      (text_embedding): Embedding(18357, 384)
      (image_trans): Linear(in_features=4096, out_features=64, bias=True)
      (text_trans): Linear(in_features=384, out_features=64, bias=True)
      (image_gnn_trans): Linear(in_features=64, out_features=64, bias=True)
      (text_gnn_trans): Linear(in_features=64, out_features=64, bias=True)
    )
    (softmax): Softmax(dim=-1)
    (act): Sigmoid()
    (sigmoid): Sigmoid()
    (dropout): Dropout(p=0.2, inplace=False)
    (batch_norm): BatchNorm1d(64, eps=1e-05, momentum=0.1, affine=True, track_running_stats=True)
    (other): ModuleDict(
      (softmax): Softmax(dim=-1)
      (act): Sigmoid()
      (sigmoid): Sigmoid()
      (dropout): Dropout(p=0.2, inplace=False)
      (batch_norm): BatchNorm1d(64, eps=1e-05, momentum=0.1, affine=True, track_running_stats=True)
    )
    (weight_dict): ParameterDict(
        (w_k): Parameter containing: [torch.cuda.FloatTensor of size 64x64 (GPU 0)]
        (w_q): Parameter containing: [torch.cuda.FloatTensor of size 64x64 (GPU 0)]
        (w_self_attention_cat): Parameter containing: [torch.cuda.FloatTensor of size 256x64 (GPU 0)]
        (w_self_attention_item): Parameter containing: [torch.cuda.FloatTensor of size 64x64 (GPU 0)]
        (w_self_attention_user): Parameter containing: [torch.cuda.FloatTensor of size 64x64 (GPU 0)]
        (w_v): Parameter containing: [torch.cuda.FloatTensor of size 64x64 (GPU 0)]
    )
  )
  (model_D): Discriminator(
    (net): Sequential(
      (0): Linear(in_features=18357, out_features=4589, bias=True)
      (1): LeakyReLU(negative_slope=True)
      (2): BatchNorm1d(4589, eps=1e-05, momentum=0.1, affine=True, track_running_stats=True)
      (3): Dropout(p=0.31, inplace=False)
      (4): Linear(in_features=4589, out_features=2294, bias=True)
      (5): LeakyReLU(negative_slope=True)
      (6): BatchNorm1d(2294, eps=1e-05, momentum=0.1, affine=True, track_running_stats=True)
      (7): Dropout(p=0.5, inplace=False)
      (8): Linear(in_features=2294, out_features=1, bias=True)
      (9): Sigmoid()
    )
  )
  (bce): BCEWithLogitsLoss()
  (bce_loss): BCELoss()
)
Trainable parameters: 181110383
Thu 20 Jul 2023 06:34:34 INFO epoch 0 training [time: 192.71s, train loss: 42.0498]
Thu 20 Jul 2023 06:34:49 INFO epoch 0 evaluating [time: 7.57s, valid_score: 0.060900]
Thu 20 Jul 2023 06:34:49 INFO valid result: 
recall@5: 0.0231    re
…
