…
The sparsity of the dataset: 99.99202039826986%
Mon 20 Mar 2023 14:14:01 INFO 
====Testing====
sports
The number of users: 35598
Average actions of users: 1.1244732850160122
The number of items: 13738
Average actions of items: 2.9137429028970736
The number of inters: 40029
The sparsity of the dataset: 99.99181486908563%
Mon 20 Mar 2023 14:14:21 INFO 

=================================


Mon 20 Mar 2023 14:14:21 INFO =========1/40: Parameters:['learning_rate', 'ssl_temp', 'ssl_alpha', 'reg', 'seed']=(0.001, 0.1, 0.01, 0.0001, 999)=======
Mon 20 Mar 2023 14:14:23 INFO SLMRec(
  (infonce_criterion): CrossEntropyLoss()
  (embedding_user): Embedding(35598, 64)
  (embedding_item): Embedding(18357, 64)
  (v_dense): Linear(in_features=4096, out_features=64, bias=True)
  (t_dense): Linear(in_features=384, out_features=64, bias=True)
  (embedding_item_after_GCN): Linear(in_features=192, out_features=64, bias=True)
  (embedding_user_after_GCN): Linear(in_features=192, out_features=64, bias=True)
  (f): Sigmoid()
  (g_i_iv): Linear(in_features=64, out_features=64, bias=True)
  (g_v_iv): Linear(in_features=64, out_features=64, bias=True)
  (g_iv_iva): Linear(in_features=64, out_features=64, bias=True)
  (g_a_iva): Linear(in_features=64, out_features=64, bias=True)
  (g_iva_ivat): Linear(in_features=64, out_features=32, bias=True)
  (g_t_ivat): Linear(in_features=64, out_features=32, bias=True)
)
Trainable parameters: 3785472
Mon 20 Mar 2023 14:15:29 INFO epoch 0 training [time: 65.23s, train loss: 3245.2737]
Mon 20 Mar 2023 14:15:51 INFO epoch 0 evaluating [time: 11.95s, valid_score: 0.089500]
Mon 20 Mar 2023 14:15:51 INFO valid result: 
recall@5: 0.0393    recall@10: 0.0603    recall@20: 0.0895    recall@50: 0.1456    ndcg@5: 0.0260    ndcg@10: 0.0328    ndcg@20: 0.0403    ndcg@50: 0.0515    precision@5: 0.0083    precision@10: 0.0064    precision@20: 0.0047    precision@50: 0.0031    map@5: 0.0213    map@10: 0.0241    map@20: 0.0261    map@50: 0.0278    
…
