…
Average actions of items: 3.749589640707642
The number of inters: 20559
The sparsity of the dataset: 99.98071694707788%
Thu 20 Jul 2023 04:30:47 INFO 
====Testing====
baby
The number of users: 19445
Average actions of users: 1.1150424273592183
The number of items: 5549
Average actions of items: 3.907370697422959
The number of inters: 21682
The sparsity of the dataset: 99.97990552482683%
Thu 20 Jul 2023 04:30:53 INFO 

=================================


Thu 20 Jul 2023 04:30:53 INFO =========1/4: Parameters:['reg_weight', 'learning_rate', 'seed']=(0.001, 0.0001, 999)=======
Thu 20 Jul 2023 04:30:54 INFO MMGCN(
  (v_gcn): GCN(
    (MLP): Linear(in_features=4096, out_features=256, bias=True)
    (conv_embed_1): BaseModel(256, 256)
    (linear_layer1): Linear(in_features=256, out_features=64, bias=True)
    (g_layer1): Linear(in_features=320, out_features=64, bias=True)
    (conv_embed_2): BaseModel(64, 64)
    (linear_layer2): Linear(in_features=64, out_features=64, bias=True)
    (g_layer2): Linear(in_features=128, out_features=64, bias=True)
    (conv_embed_3): BaseModel(64, 64)
    (linear_layer3): Linear(in_features=64, out_features=64, bias=True)
    (g_layer3): Linear(in_features=128, out_features=64, bias=True)
  )
  (t_gcn): GCN(
    (conv_embed_1): BaseModel(384, 384)
    (linear_layer1): Linear(in_features=384, out_features=64, bias=True)
    (g_layer1): Linear(in_features=448, out_features=64, bias=True)
    (conv_embed_2): BaseModel(64, 64)
    (linear_layer2): Linear(in_features=64, out_features=64, bias=True)
    (g_layer2): Linear(in_features=128, out_features=64, bias=True)
    (conv_embed_3): BaseModel(64, 64)
    (linear_layer3): Linear(in_features=64, out_features=64, bias=True)
    (g_layer3): Linear(in_features=128, out_features=64, bias=True)
  )
)
Trainable parameters: 1418240
Thu 20 Jul 2023 04:30:58 INFO epoch 0 training [time: 3.94s, train loss: 20.0898]
Thu 20 Jul 2023 04:31:04 INFO epoch 0 evaluating [time: 2.95s, valid_score: 0.018800]
Thu 20 Jul 2023 04:31:04 INFO valid result: 
recall@5: 0.0052    recall@10: 0.0074    recall@20: 0.0188    recall@50: 0.0310    ndcg@5: 0.0030    ndcg@10: 0.0037    ndcg@20: 0.0065    ndcg@50: 0.0090    precision@5: 0.0011    precision@10: 0.0008    precision@20: 0.0010    precision@50: 0.0007    map@5: 0.0022    map@10: 0.0025    map@20: 0.0032    map@50: 0.0036    
…
