…
The sparsity of the dataset: 99.98071694707788%
Wed 15 Mar 2023 13:08:00 INFO 
====Testing====
baby
The number of users: 19445
Average actions of users: 1.1150424273592183
The number of items: 5549
Average actions of items: 3.907370697422959
The number of inters: 21682
The sparsity of the dataset: 99.97990552482683%
Wed 15 Mar 2023 13:08:09 INFO 

=================================


Wed 15 Mar 2023 13:08:09 INFO =========1/40: Parameters:['learning_rate', 'ssl_temp', 'ssl_alpha', 'reg', 'seed']=(0.001, 0.1, 0.01, 0.0001, 999)=======
Wed 15 Mar 2023 13:08:10 INFO SLMRec(
  (infonce_criterion): CrossEntropyLoss()
  (embedding_user): Embedding(19445, 64)
  (embedding_item): Embedding(7050, 64)
  (v_dense): Linear(in_features=4096, out_features=64, bias=True)
  (t_dense): Linear(in_features=384, out_features=64, bias=True)
  (embedding_item_after_GCN): Linear(in_features=192, out_features=64, bias=True)
  (embedding_user_after_GCN): Linear(in_features=192, out_features=64, bias=True)
  (f): Sigmoid()
  (g_i_iv): Linear(in_features=64, out_features=64, bias=True)
  (g_v_iv): Linear(in_features=64, out_features=64, bias=True)
  (g_iv_iva): Linear(in_features=64, out_features=64, bias=True)
  (g_a_iva): Linear(in_features=64, out_features=64, bias=True)
  (g_iva_ivat): Linear(in_features=64, out_features=32, bias=True)
  (g_t_ivat): Linear(in_features=64, out_features=32, bias=True)
)
Trainable parameters: 2028032
Wed 15 Mar 2023 13:08:26 INFO epoch 0 training [time: 15.60s, train loss: 2018.0304]
Wed 15 Mar 2023 13:08:35 INFO epoch 0 evaluating [time: 4.87s, valid_score: 0.068400]
Wed 15 Mar 2023 13:08:35 INFO valid result: 
recall@5: 0.0290    recall@10: 0.0461    recall@20: 0.0684    recall@50: 0.1142    ndcg@5: 0.0197    ndcg@10: 0.0252    ndcg@20: 0.0309    ndcg@50: 0.0400    precision@5: 0.0061    precision@10: 0.0049    precision@20: 0.0036    precision@50: 0.0024    map@5: 0.0164    map@10: 0.0186    map@20: 0.0201    map@50: 0.0215    
…
