…
The number of inters: 40150
The sparsity of the dataset: 99.99389670773579%
Thu 20 Jul 2023 04:29:35 INFO 
====Testing====
clothing
The number of users: 39387
Average actions of users: 1.0457511361616778
The number of items: 16803
Average actions of items: 2.451288460393977
The number of inters: 41189
The sparsity of the dataset: 99.99377640221293%
Thu 20 Jul 2023 04:29:42 INFO 

=================================


Thu 20 Jul 2023 04:29:42 INFO =========1/4: Parameters:['reg_weight', 'learning_rate', 'seed']=(0.001, 0.0001, 999)=======
Thu 20 Jul 2023 04:29:44 INFO MMGCN(
  (v_gcn): GCN(
    (MLP): Linear(in_features=4096, out_features=256, bias=True)
    (conv_embed_1): BaseModel(256, 256)
    (linear_layer1): Linear(in_features=256, out_features=64, bias=True)
    (g_layer1): Linear(in_features=320, out_features=64, bias=True)
    (conv_embed_2): BaseModel(64, 64)
    (linear_layer2): Linear(in_features=64, out_features=64, bias=True)
    (g_layer2): Linear(in_features=128, out_features=64, bias=True)
    (conv_embed_3): BaseModel(64, 64)
    (linear_layer3): Linear(in_features=64, out_features=64, bias=True)
    (g_layer3): Linear(in_features=128, out_features=64, bias=True)
  )
  (t_gcn): GCN(
    (conv_embed_1): BaseModel(384, 384)
    (linear_layer1): Linear(in_features=384, out_features=64, bias=True)
    (g_layer1): Linear(in_features=448, out_features=64, bias=True)
    (conv_embed_2): BaseModel(64, 64)
    (linear_layer2): Linear(in_features=64, out_features=64, bias=True)
    (g_layer2): Linear(in_features=128, out_features=64, bias=True)
    (conv_embed_3): BaseModel(64, 64)
    (linear_layer3): Linear(in_features=64, out_features=64, bias=True)
    (g_layer3): Linear(in_features=128, out_features=64, bias=True)
  )
)
Trainable parameters: 1418240
Thu 20 Jul 2023 04:29:54 INFO epoch 0 training [time: 9.55s, train loss: 33.9355]
Thu 20 Jul 2023 04:30:07 INFO epoch 0 evaluating [time: 6.80s, valid_score: 0.000800]
Thu 20 Jul 2023 04:30:07 INFO valid result: 
recall@5: 0.0001    recall@10: 0.0003    recall@20: 0.0008    recall@50: 0.0017    ndcg@5: 0.0001    ndcg@10: 0.0001    ndcg@20: 0.0003    ndcg@50: 0.0004    precision@5: 0.0000    precision@10: 0.0000    precision@20: 0.0000    precision@50: 0.0000    map@5: 0.0001    map@10: 0.0001    map@20: 0.0001    map@50: 0.0001    
…
