…
Average actions of items: 2.4039037241048975
The number of inters: 40150
The sparsity of the dataset: 99.99389670773579%
Mon 24 Jul 2023 05:55:57 INFO 
====Testing====
clothing
The number of users: 39387
Average actions of users: 1.0457511361616778
The number of items: 16803
Average actions of items: 2.451288460393977
The number of inters: 41189
The sparsity of the dataset: 99.99377640221293%
Mon 24 Jul 2023 05:56:12 INFO 

=================================


Mon 24 Jul 2023 05:56:12 INFO =========1/4: Parameters:['layer', 'seed']=(1, 999)=======
Mon 24 Jul 2023 05:56:22 INFO MMSSL(
  (model_G): Generator(
    (image_decoder): Linear(in_features=64, out_features=4096, bias=True)
    (text_decoder): Linear(in_features=64, out_features=384, bias=True)
    (decoder): ModuleDict(
      (image_decoder): Linear(in_features=64, out_features=4096, bias=True)
      (text_decoder): Linear(in_features=64, out_features=384, bias=True)
    )
    (image_trans): Linear(in_features=4096, out_features=64, bias=True)
    (text_trans): Linear(in_features=384, out_features=64, bias=True)
    (encoder): ModuleDict(
      (image_encoder): Linear(in_features=4096, out_features=64, bias=True)
      (text_encoder): Linear(in_features=384, out_features=64, bias=True)
    )
    (common_trans): Linear(in_features=64, out_features=64, bias=True)
    (align): ModuleDict(
      (common_trans): Linear(in_features=64, out_features=64, bias=True)
    )
    (user_id_embedding): Embedding(39387, 64)
    (item_id_embedding): Embedding(23033, 64)
    (image_embedding): Embedding(23033, 4096)
    (text_embedding): Embedding(23033, 384)
    (image_gnn_trans): Linear(in_features=64, out_features=64, bias=True)
    (text_gnn_trans): Linear(in_features=64, out_features=64, bias=True)
    (gnn): ModuleDict(
      (user_id_embedding): Embedding(39387, 64)
      (item_id_embedding): Embedding(23033, 64)
      (image_embedding): Embedding(23033, 4096)
      (text_embedding): Embedding(23033, 384)
      (image_trans): Linear(in_features=4096, out_features=64, bias=True)
      (text_trans): Linear(in_features=384, out_features=64, bias=True)
      (image_gnn_trans): Linear(in_features=64, out_features=64, bias=True)
      (text_gnn_trans): Linear(in_features=64, out_features=64, bias=True)
    )
    (softmax): Softmax(dim=-1)
    (act): Sigmoid()
    (sigmoid): Sigmoid()
    (dropout): Dropout(p=0.2, inplace=False)
    (batch_norm): BatchNorm1d(64, eps=1e-05, momentum=0.1, affine=True, track_running_stats=True)
    (other): ModuleDict(
      (softmax): Softmax(dim=-1)
      (act): Sigmoid()
      (sigmoid): Sigmoid()
      (dropout): Dropout(p=0.2, inplace=False)
      (batch_norm): BatchNorm1d(64, eps=1e-05, momentum=0.1, affine=True, track_running_stats=True)
    )
    (weight_dict): ParameterDict(
        (w_k): Parameter containing: [torch.cuda.FloatTensor of size 64x64 (GPU 0)]
        (w_q): Parameter containing: [torch.cuda.FloatTensor of size 64x64 (GPU 0)]
        (w_self_attention_cat): Parameter containing: [torch.cuda.FloatTensor of size 256x64 (GPU 0)]
        (w_self_attention_item): Parameter containing: [torch.cuda.FloatTensor of size 64x64 (GPU 0)]
        (w_self_attention_user): Parameter containing: [torch.cuda.FloatTensor of size 64x64 (GPU 0)]
        (w_v): Parameter containing: [torch.cuda.FloatTensor of size 64x64 (GPU 0)]
    )
  )
  (model_D): Discriminator(
    (net): Sequential(
      (0): Linear(in_features=23033, out_features=5758, bias=True)
      (1): LeakyReLU(negative_slope=True)
      (2): BatchNorm1d(5758, eps=1e-05, momentum=0.1, affine=True, track_running_stats=True)
      (3): Dropout(p=0.31, inplace=False)
      (4): Linear(in_features=5758, out_features=2879, bias=True)
      (5): LeakyReLU(negative_slope=True)
      (6): BatchNorm1d(2879, eps=1e-05, momentum=0.1, affine=True, track_running_stats=True)
      (7): Dropout(p=0.5, inplace=False)
      (8): Linear(in_features=2879, out_features=1, bias=True)
      (9): Sigmoid()
    )
  )
  (bce): BCEWithLogitsLoss()
  (bce_loss): BCELoss()
)
Trainable parameters: 257040327
Mon 24 Jul 2023 05:59:39 INFO epoch 0 training [time: 197.02s, train loss: 40.9010]
Mon 24 Jul 2023 05:59:53 INFO epoch 0 evaluating [time: 7.04s, valid_score: 0.039700]
Mon 24 Jul 2023 05:59:53 INFO valid result: 
recall@5: 0.0161    re
…
