…
The sparsity of the dataset: 99.99389670773579%
Mon 20 Mar 2023 14:14:20 INFO 
====Testing====
clothing
The number of users: 39387
Average actions of users: 1.0457511361616778
The number of items: 16803
Average actions of items: 2.451288460393977
The number of inters: 41189
The sparsity of the dataset: 99.99377640221293%
Mon 20 Mar 2023 14:14:41 INFO 

=================================


Mon 20 Mar 2023 14:14:41 INFO =========1/40: Parameters:['learning_rate', 'ssl_temp', 'ssl_alpha', 'reg', 'seed']=(0.001, 0.1, 0.01, 0.0001, 999)=======
Mon 20 Mar 2023 14:14:42 INFO SLMRec(
  (infonce_criterion): CrossEntropyLoss()
  (embedding_user): Embedding(39387, 64)
  (embedding_item): Embedding(23033, 64)
  (v_dense): Linear(in_features=4096, out_features=64, bias=True)
  (t_dense): Linear(in_features=384, out_features=64, bias=True)
  (embedding_item_after_GCN): Linear(in_features=192, out_features=64, bias=True)
  (embedding_user_after_GCN): Linear(in_features=192, out_features=64, bias=True)
  (f): Sigmoid()
  (g_i_iv): Linear(in_features=64, out_features=64, bias=True)
  (g_v_iv): Linear(in_features=64, out_features=64, bias=True)
  (g_iv_iva): Linear(in_features=64, out_features=64, bias=True)
  (g_a_iva): Linear(in_features=64, out_features=64, bias=True)
  (g_iva_ivat): Linear(in_features=64, out_features=32, bias=True)
  (g_t_ivat): Linear(in_features=64, out_features=32, bias=True)
)
Trainable parameters: 4327232
Mon 20 Mar 2023 14:15:32 INFO epoch 0 training [time: 49.24s, train loss: 2795.1971]
Mon 20 Mar 2023 14:15:57 INFO epoch 0 evaluating [time: 12.06s, valid_score: 0.066100]
Mon 20 Mar 2023 14:15:57 INFO valid result: 
recall@5: 0.0287    recall@10: 0.0444    recall@20: 0.0661    recall@50: 0.1054    ndcg@5: 0.0190    ndcg@10: 0.0240    ndcg@20: 0.0294    ndcg@50: 0.0372    precision@5: 0.0058    precision@10: 0.0045    precision@20: 0.0033    precision@50: 0.0021    map@5: 0.0157    map@10: 0.0177    map@20: 0.0192    map@50: 0.0204    
…
