…
Average actions of items: 3.749589640707642
The number of inters: 20559
The sparsity of the dataset: 99.98071694707788%
Thu 20 Jul 2023 06:28:40 INFO 
====Testing====
baby
The number of users: 19445
Average actions of users: 1.1150424273592183
The number of items: 5549
Average actions of items: 3.907370697422959
The number of inters: 21682
The sparsity of the dataset: 99.97990552482683%
Thu 20 Jul 2023 06:28:49 INFO 

=================================


Thu 20 Jul 2023 06:28:49 INFO =========1/4: Parameters:['layer', 'seed']=(1, 999)=======
Thu 20 Jul 2023 06:28:51 INFO MMSSL(
  (model_G): Generator(
    (image_decoder): Linear(in_features=64, out_features=4096, bias=True)
    (text_decoder): Linear(in_features=64, out_features=384, bias=True)
    (decoder): ModuleDict(
      (image_decoder): Linear(in_features=64, out_features=4096, bias=True)
      (text_decoder): Linear(in_features=64, out_features=384, bias=True)
    )
    (image_trans): Linear(in_features=4096, out_features=64, bias=True)
    (text_trans): Linear(in_features=384, out_features=64, bias=True)
    (encoder): ModuleDict(
      (image_encoder): Linear(in_features=4096, out_features=64, bias=True)
      (text_encoder): Linear(in_features=384, out_features=64, bias=True)
    )
    (common_trans): Linear(in_features=64, out_features=64, bias=True)
    (align): ModuleDict(
      (common_trans): Linear(in_features=64, out_features=64, bias=True)
    )
    (user_id_embedding): Embedding(19445, 64)
    (item_id_embedding): Embedding(7050, 64)
    (image_embedding): Embedding(7050, 4096)
    (text_embedding): Embedding(7050, 384)
    (image_gnn_trans): Linear(in_features=64, out_features=64, bias=True)
    (text_gnn_trans): Linear(in_features=64, out_features=64, bias=True)
    (gnn): ModuleDict(
      (user_id_embedding): Embedding(19445, 64)
      (item_id_embedding): Embedding(7050, 64)
      (image_embedding): Embedding(7050, 4096)
      (text_embedding): Embedding(7050, 384)
      (image_trans): Linear(in_features=4096, out_features=64, bias=True)
      (text_trans): Linear(in_features=384, out_features=64, bias=True)
      (image_gnn_trans): Linear(in_features=64, out_features=64, bias=True)
      (text_gnn_trans): Linear(in_features=64, out_features=64, bias=True)
    )
    (softmax): Softmax(dim=-1)
    (act): Sigmoid()
    (sigmoid): Sigmoid()
    (dropout): Dropout(p=0.2, inplace=False)
    (batch_norm): BatchNorm1d(64, eps=1e-05, momentum=0.1, affine=True, track_running_stats=True)
    (other): ModuleDict(
      (softmax): Softmax(dim=-1)
      (act): Sigmoid()
      (sigmoid): Sigmoid()
      (dropout): Dropout(p=0.2, inplace=False)
      (batch_norm): BatchNorm1d(64, eps=1e-05, momentum=0.1, affine=True, track_running_stats=True)
    )
    (weight_dict): ParameterDict(
        (w_k): Parameter containing: [torch.cuda.FloatTensor of size 64x64 (GPU 0)]
        (w_q): Parameter containing: [torch.cuda.FloatTensor of size 64x64 (GPU 0)]
        (w_self_attention_cat): Parameter containing: [torch.cuda.FloatTensor of size 256x64 (GPU 0)]
        (w_self_attention_item): Parameter containing: [torch.cuda.FloatTensor of size 64x64 (GPU 0)]
        (w_self_attention_user): Parameter containing: [torch.cuda.FloatTensor of size 64x64 (GPU 0)]
        (w_v): Parameter containing: [torch.cuda.FloatTensor of size 64x64 (GPU 0)]
    )
  )
  (model_D): Discriminator(
    (net): Sequential(
      (0): Linear(in_features=7050, out_features=1762, bias=True)
      (1): LeakyReLU(negative_slope=True)
      (2): BatchNorm1d(1762, eps=1e-05, momentum=0.1, affine=True, track_running_stats=True)
      (3): Dropout(p=0.31, inplace=False)
      (4): Linear(in_features=1762, out_features=881, bias=True)
      (5): LeakyReLU(negative_slope=True)
      (6): BatchNorm1d(881, eps=1e-05, momentum=0.1, affine=True, track_running_stats=True)
      (7): Dropout(p=0.5, inplace=False)
      (8): Linear(in_features=881, out_features=1, bias=True)
      (9): Sigmoid()
    )
  )
  (bce): BCEWithLogitsLoss()
  (bce_loss): BCELoss()
)
Trainable parameters: 47890433
Thu 20 Jul 2023 06:29:40 INFO epoch 0 training [time: 48.87s, train loss: 26.0435]
Thu 20 Jul 2023 06:29:47 INFO epoch 0 evaluating [time: 3.39s, valid_score: 0.067800]
Thu 20 Jul 2023 06:29:47 INFO valid result: 
recall@5: 0.0274    recall@10: 0.0424    recall@20: 0.0678    recall@50: 0.1228    ndcg@5: 0.0180    ndcg@10: 0.0229    ndcg@20: 0.0293    ndcg@50: 0.0403    precision@5: 0.0057    precision@10: 0.0045    precision@20: 0.0036    precision@50: 0.0026    map@5: 0.0146    map@10: 0.0166    map@20: 0.0184    map@50: 0.0201    
…
