…
The sparsity of the dataset: 99.98071694707788%
Sat 07 Oct 2023 06:41:36 INFO 
====Testing====
baby
The number of users: 19445
Average actions of users: 1.1150424273592183
The number of items: 5549
Average actions of items: 3.907370697422959
The number of inters: 21682
The sparsity of the dataset: 99.97990552482683%
Sat 07 Oct 2023 06:41:53 INFO 

=================================


Sat 07 Oct 2023 06:41:53 INFO =========1/4: Parameters:['n_ui_layers', 'neighbor_weight', 'kl_weight', 'n_mm_layers', 'alpha', 'beta', 'gama', 'seed']=(2, 1, 1, 1, 1.5, 1.5, 1, 999)=======
Sat 07 Oct 2023 06:41:58 INFO LightGCN(
  (user_embedding): Embedding(19445, 64)
  (item_id_embedding): Embedding(7050, 64)
  (image_embedding): Embedding(7050, 4096)
  (image_trs): Linear(in_features=4096, out_features=64, bias=True)
  (text_embedding): Embedding(7050, 384)
  (text_trs): Linear(in_features=384, out_features=64, bias=True)
  (query_common): Sequential(
    (0): Linear(in_features=64, out_features=64, bias=True)
    (1): ReLU()
    (2): Linear(in_features=64, out_features=1, bias=False)
  )
  (key_common): Sequential(
    (0): Linear(in_features=64, out_features=64, bias=True)
    (1): ReLU()
    (2): Linear(in_features=64, out_features=1, bias=False)
  )
)
Trainable parameters: 33574976
Sat 07 Oct 2023 06:42:01 INFO epoch 0 training [time: 2.78s, train loss: 195.3701]
Sat 07 Oct 2023 06:42:16 INFO epoch 0 evaluating [time: 8.66s, valid_score: 0.027600]
Sat 07 Oct 2023 06:42:16 INFO valid result: 
recall@5: 0.0091    recall@10: 0.0173    recall@20: 0.0276    recall@50: 0.0451    ndcg@5: 0.0055    ndcg@10: 0.0082    ndcg@20: 0.0108    ndcg@50: 0.0143    precision@5: 0.0019    precision@10: 0.0018    precision@20: 0.0014    precision@50: 0.0009    map@5: 0.0043    map@10: 0.0054    map@20: 0.0061    map@50: 0.0067    
…
