…
The sparsity of the dataset: 99.98071694707788%
Sun 08 Oct 2023 18:04:22 INFO 
====Testing====
baby
The number of users: 19445
Average actions of users: 1.1150424273592183
The number of items: 5549
Average actions of items: 3.907370697422959
The number of inters: 21682
The sparsity of the dataset: 99.97990552482683%
Sun 08 Oct 2023 18:04:31 INFO 

=================================


Sun 08 Oct 2023 18:04:31 INFO =========1/1: Parameters:['n_ui_layers', 'neighbor_weight', 'kl_weight', 'n_mm_layers', 'alpha', 'beta', 'gama', 'seed']=(2, 0.01, 1, 1, 1.5, 1.5, 1, 999)=======
Sun 08 Oct 2023 18:04:34 INFO LightGCN(
  (user_embedding): Embedding(19445, 64)
  (item_id_embedding): Embedding(7050, 64)
  (image_embedding): Embedding(7050, 4096)
  (image_trs): Linear(in_features=4096, out_features=64, bias=True)
  (text_embedding): Embedding(7050, 384)
  (text_trs): Linear(in_features=384, out_features=64, bias=True)
  (query_common): Sequential(
    (0): Linear(in_features=64, out_features=64, bias=True)
    (1): ReLU()
    (2): Linear(in_features=64, out_features=1, bias=False)
  )
  (key_common): Sequential(
    (0): Linear(in_features=64, out_features=64, bias=True)
    (1): ReLU()
    (2): Linear(in_features=64, out_features=1, bias=False)
  )
)
Trainable parameters: 33574976
Sun 08 Oct 2023 18:04:36 INFO epoch 0 training [time: 1.83s, train loss: 9.0254]
Sun 08 Oct 2023 18:04:43 INFO epoch 0 evaluating [time: 3.61s, valid_score: 0.029900]
Sun 08 Oct 2023 18:04:43 INFO valid result: 
recall@5: 0.0105    recall@10: 0.0189    recall@20: 0.0299    recall@50: 0.0500    ndcg@5: 0.0065    ndcg@10: 0.0093    ndcg@20: 0.0121    ndcg@50: 0.0161    precision@5: 0.0022    precision@10: 0.0020    precision@20: 0.0016    precision@50: 0.0010    map@5: 0.0052    map@10: 0.0063    map@20: 0.0071    map@50: 0.0077    
…
