…
The sparsity of the dataset: 99.98071694707788%
Sat 07 Oct 2023 06:37:56 INFO 
====Testing====
baby
The number of users: 19445
Average actions of users: 1.1150424273592183
The number of items: 5549
Average actions of items: 3.907370697422959
The number of inters: 21682
The sparsity of the dataset: 99.97990552482683%
Sat 07 Oct 2023 06:38:12 INFO 

=================================


Sat 07 Oct 2023 06:38:12 INFO =========1/4: Parameters:['n_ui_layers', 'neighbor_weight', 'kl_weight', 'n_mm_layers', 'alpha', 'beta', 'gama', 'seed']=(2, 0.001, 10, 1, 1.5, 1.5, 1, 999)=======
Sat 07 Oct 2023 06:38:22 INFO LightGCN(
  (user_embedding): Embedding(19445, 64)
  (item_id_embedding): Embedding(7050, 64)
  (image_embedding): Embedding(7050, 4096)
  (image_trs): Linear(in_features=4096, out_features=64, bias=True)
  (text_embedding): Embedding(7050, 384)
  (text_trs): Linear(in_features=384, out_features=64, bias=True)
  (query_common): Sequential(
    (0): Linear(in_features=64, out_features=64, bias=True)
    (1): ReLU()
    (2): Linear(in_features=64, out_features=1, bias=False)
  )
  (key_common): Sequential(
    (0): Linear(in_features=64, out_features=64, bias=True)
    (1): ReLU()
    (2): Linear(in_features=64, out_features=1, bias=False)
  )
)
Trainable parameters: 33574976
Sat 07 Oct 2023 06:38:27 INFO epoch 0 training [time: 4.64s, train loss: 7.3297]
Sat 07 Oct 2023 06:38:41 INFO epoch 0 evaluating [time: 7.00s, valid_score: 0.041900]
Sat 07 Oct 2023 06:38:41 INFO valid result: 
recall@5: 0.0179    recall@10: 0.0281    recall@20: 0.0419    recall@50: 0.0702    ndcg@5: 0.0118    ndcg@10: 0.0152    ndcg@20: 0.0187    ndcg@50: 0.0244    precision@5: 0.0037    precision@10: 0.0030    precision@20: 0.0022    precision@50: 0.0015    map@5: 0.0097    map@10: 0.0111    map@20: 0.0120    map@50: 0.0129    
…
