…
The sparsity of the dataset: 99.98071694707788%
Sat 07 Oct 2023 13:54:05 INFO 
====Testing====
baby
The number of users: 19445
Average actions of users: 1.1150424273592183
The number of items: 5549
Average actions of items: 3.907370697422959
The number of inters: 21682
The sparsity of the dataset: 99.97990552482683%
Sat 07 Oct 2023 13:54:14 INFO 

=================================


Sat 07 Oct 2023 13:54:14 INFO =========1/5: Parameters:['n_ui_layers', 'neighbor_weight', 'kl_weight', 'n_mm_layers', 'alpha', 'beta', 'gama', 'seed']=(2, 0.0001, 0.01, 1, 1.5, 1.5, 1, 999)=======
Sat 07 Oct 2023 13:54:18 INFO LightGCN(
  (user_embedding): Embedding(19445, 64)
  (item_id_embedding): Embedding(7050, 64)
  (image_embedding): Embedding(7050, 4096)
  (image_trs): Linear(in_features=4096, out_features=64, bias=True)
  (text_embedding): Embedding(7050, 384)
  (text_trs): Linear(in_features=384, out_features=64, bias=True)
  (query_common): Sequential(
    (0): Linear(in_features=64, out_features=64, bias=True)
    (1): ReLU()
    (2): Linear(in_features=64, out_features=1, bias=False)
  )
  (key_common): Sequential(
    (0): Linear(in_features=64, out_features=64, bias=True)
    (1): ReLU()
    (2): Linear(in_features=64, out_features=1, bias=False)
  )
)
Trainable parameters: 33574976
Sat 07 Oct 2023 13:54:21 INFO epoch 0 training [time: 1.96s, train loss: 7.1488]
Sat 07 Oct 2023 13:54:28 INFO epoch 0 evaluating [time: 3.32s, valid_score: 0.036400]
Sat 07 Oct 2023 13:54:28 INFO valid result: 
recall@5: 0.0162    recall@10: 0.0240    recall@20: 0.0364    recall@50: 0.0622    ndcg@5: 0.0109    ndcg@10: 0.0134    ndcg@20: 0.0166    ndcg@50: 0.0218    precision@5: 0.0034    precision@10: 0.0025    precision@20: 0.0019    precision@50: 0.0014    map@5: 0.0090    map@10: 0.0100    map@20: 0.0109    map@50: 0.0117    
…
